inference/iris_model.pth (torch, 4883 bytes, 4 tensors)

fc1.weight f4 [100, 4]
000000 13 9b c2 be ad 53 23 bd 41 d5 d8 3e 55 b3 80 be
       -0.38008937 -0.03987472 0.423502 -0.2513682
000010 b2 59 63 3d 22 44 13 3e a5 c1 00 bf 0d bb e7 bd
       0.055505462 0.1438146 -0.5029548 -0.11314974
000020 19 31 f8 3e 94 5e de 3e 98 73 07 be 2a bb bf be
       0.4847496 0.43431532 -0.1322769 -0.37447482
000030 50 61 b6 be c0 9d e6 be 80 bc c3 3d 32 d6 ca 3e
       -0.3562112 -0.4504223 0.09557438 0.39616543
000040 0d 8f f9 3d e4 76 05 bf a9 14 1d 3f e1 cc 12 3f
       0.12185488 -0.5213454 0.6135965 0.5734387
000050 81 74 f1 3e 15 b2 07 3f 6d d7 c4 3e 2f 6c af bb
       0.47159198 0.53006107 0.38445607 -0.0053534727
000060 30 5a dc be 7c 5b 87 3e 90 56 ff be 80 7b 9c 3b
       -0.43037558 0.26436985 -0.4987073 0.0047754645
000070 59 f0 47 3d d1 e8 47 be 55 76 a5 3e a8 57 50 3f
       0.048813198 -0.19522406 0.32316843 0.8138375
000080 ac f8 5b be c8 7b 84 be 00 a7 84 bd 1c 82 9e 3e
       -0.2148158 -0.25875688 -0.06477165 0.3095864
000090 56 80 97 bd 2c 2f d4 3d 6e 8e 0f 3f b0 aa b0 3d
       -0.07397525 0.1036056 0.56076705 0.08626306
0000a0 38 87 04 3f 29 ef e5 be d8 45 49 3d 2f 90 11 bd
       0.5176883 -0.44909027 0.049138874 -0.035537895
0000b0 44 39 fc be 38 e4 b3 be 66 4b 89 be 22 2d cf 3e
       -0.4926244 -0.35135055 -0.26815337 0.4046412
0000c0 5e f4 ff be 58 62 3f be d0 a7 ff 3e b0 9c f6 3d
       -0.49991125 -0.18689859 0.49932718 0.120416045
0000d0 07 7e f2 bd 6d 2f 97 3e 73 15 6a 3d 2a 16 87 3e
       -0.11840444 0.2952837 0.05714936 0.26384097
0000e0 3b e7 8e bd 00 c4 29 3f b4 3c d4 bd 8a 79 d8 be
       -0.069776975 0.663147 -0.10363141 -0.42280227
0000f0 ff 94 d5 3e 80 2f 70 3e a2 9b 87 bd dd c0 d9 3d
       0.41715237 0.2345562 -0.066214815 0.10632489
000100 38 ae cc bd 1c de 61 3e 00 7a 4c be 3e bb f6 be
       -0.09994167 0.22057384 -0.19968414 -0.4818973
000110 c8 6a 18 be e6 8c f7 be 48 b7 0a be 6c a5 5b be
       -0.14884484 -0.48349684 -0.13546479 -0.21449822
000120 46 13 f0 be 01 61 15 be 00 6d 0e 3f d1 05 1d 3f
       -0.46889704 -0.14587785 0.5563507 0.61337
000130 e0 1e bd be 90 a7 02 3e 30 b0 d5 3d 50 8d b2 3d
       -0.36937618 0.12759233 0.10433996 0.087183595
000140 b8 4a df be c2 36 d2 3e 40 39 6a 3c 30 2e 66 3e
       -0.43611693 0.41057402 0.014295876 0.22478557
000150 8b 57 b2 be 4e a1 05 3e 8b 58 0f 3f 4a 32 34 3f
       -0.34832415 0.13049814 0.5599448 0.70389235
000160 78 8d 1b be f0 a2 5a bd be 2d eb be d4 2c ed be
       -0.15190685 -0.053378046 -0.45933336 -0.46323264
000170 f0 33 d4 3d ee 41 bc be 90 91 97 be 7e e6 e3 be
       0.10361469 -0.3676905 -0.29603243 -0.4451179
000180 bb af 7c 3e 53 d1 d1 be 12 ed 66 3e de 04 bf 3d
       0.24676411 -0.40980014 0.22551373 0.093271
000190 3d cf c8 3d 73 83 ff bc 5c f8 d8 be 22 ce 6a 3e
       0.098051526 -0.03119061 -0.42376983 0.22930196
0001a0 3d e9 90 3d f8 16 1b 3f 99 a1 9a be d1 2b 76 bd
       0.07075737 0.6058192 -0.30201414 -0.06010038
0001b0 39 d6 85 bd 27 2e 28 3f eb c1 fc be 89 86 42 3e
       -0.06535 0.6569542 -0.49366698 0.18996634
0001c0 ee b4 5d 3d 2d 84 dc 3e 28 4f 79 3e 07 87 d4 3d
       0.054127626 0.43069592 0.24346602 0.10377317
0001d0 3d 43 b6 3e c3 48 ea be 5b b4 84 be 63 eb 97 3d
       0.35598174 -0.45758638 -0.2591885 0.07417943
0001e0 40 a1 22 bd 60 1b fd bd f6 04 cf be 56 eb 8b be
       -0.03970456 -0.12358737 -0.40433472 -0.27327985
0001f0 6c ef d6 3d 3b dc 51 3d 68 71 7f be 12 42 09 3c
       0.10494885 0.05123542 -0.24945605 0.008377569
000200 fc 37 9f be 80 42 2a 3c 34 39 81 3e 9c de 3c 3e
       -0.310974 0.010391831 0.25238955 0.18444294
000210 b9 cc 62 3e 47 d6 1e 3f 3a 91 c1 be 99 d8 42 bf
       0.22148408 0.6204571 -0.37806112 -0.7611175
000220 92 31 1c 3e bd f9 d4 bd 1c 12 41 3e d5 03 8c 3b
       0.15253285 -0.10399196 0.18854564 0.0042729178
000230 d4 7d 5e 3d f2 93 ee be 65 45 23 3f b4 ef e9 bd
       0.054319218 -0.46597248 0.6377776 -0.11422673
000240 d0 b9 14 be 2e 14 a4 be 80 4f 91 bb 04 4a ab 3e
       -0.14524007 -0.32046646 -0.004434526 0.33454907
000250 e6 0c 16 3b 15 a5 5c 3e 9a da a8 3e 16 71 17 3f
       0.0022895872 0.21547349 0.3297928 0.5915693
000260 bc b1 82 be 75 f6 35 3d a4 e7 d8 3e 25 b8 d9 3e
       -0.25526226 0.044424493 0.42364228 0.42523304
000270 7f 65 80 3d b3 b7 00 3f ee 26 d4 3e bd 3c 92 be
       0.06269359 0.502803 0.4143595 -0.28561965
000280 79 a6 b1 be de 90 6f 3e 60 b0 b5 3e 8a 92 c3 3e
       -0.3469732 0.23395106 0.35486126 0.38197738
000290 70 fc f8 be 16 dd db be ac a6 6a be f0 8e c5 3d
       -0.48630095 -0.42942113 -0.22915143 0.09646404
0002a0 55 88 bf 3d 78 77 45 be e9 42 fe 3e c3 00 06 be
       0.09352175 -0.19283855 0.49660423 -0.13086228
0002b0 c8 bd a4 3e 84 11 21 bf 4c de cb 3e 21 62 8b 3e
       0.32176042 -0.6291735 0.39818037 0.27223304
0002c0 de d5 dd 3e 25 cd 8d 3e be 4c 30 bf d4 61 01 3d
       0.4332723 0.27695575 -0.688671 0.031587437
0002d0 34 20 ac be 50 f8 2e 3e 50 0f 3e be 40 06 c0 3d
       -0.3361832 0.17086911 -0.18560529 0.09376192
0002e0 b0 cd a1 bd c0 02 08 3c 6c 79 a3 be 3c a7 db be
       -0.0790056 0.008301437 -0.31928575 -0.42901027
0002f0 82 19 86 3e bd a0 13 3f ab 25 bc bd 49 f8 09 be
       0.26191336 0.5766714 -0.09186872 -0.1347362
000300 ad d5 12 3f 3f cb 43 be 4e c9 c7 be 67 00 98 bd
       0.57357293 -0.19120501 -0.3902077 -0.07421952
000310 88 5a cf bd 78 85 85 be 6e a6 bb be e2 96 8d 3e
       -0.10124689 -0.2607839 -0.36650413 0.27654177
000320 e8 16 34 be 36 7d f1 be 10 37 20 3d ee 3e bc 3e
       -0.17586863 -0.4716584 0.03911501 0.36766762
000330 f4 d0 74 3c e4 c2 92 3e 71 10 11 3e 5c fb 1a bf
       0.014942396 0.28664315 0.14166428 -0.60539794
000340 16 60 29 3e 04 2c 3c be 40 75 b2 3e ee d7 85 3e
       0.1654056 -0.18376166 0.3485508 0.26141304
000350 bd 71 e8 bc d8 00 eb be 08 de 23 3f 0c ed da 3e
       -0.028374547 -0.4589908 0.6401067 0.42758977
000360 c5 ff b5 3e 6b 49 12 3f db 23 7a be 3f ea 4f bf
       0.355467 0.57143277 -0.2442774 -0.81216806
000370 24 4d f6 be 56 15 db be 78 5d 97 3d 80 6d f5 bc
       -0.4810573 -0.42789716 0.073908746 -0.02995944
000380 f0 b0 5f bd c0 9c a3 3c 9c 34 a8 be 30 51 7f bd
       -0.0546121 0.019972205 -0.32852638 -0.062333286
000390 94 b8 41 3e c0 2a c6 3e 81 ee 95 be 1a 3e 39 bf
       0.18918067 0.3870449 -0.29283527 -0.72360384
0003a0 69 02 68 3e 43 95 bb 3e 8d 4e 78 3e ab de 94 3e
       0.2265717 0.36637315 0.24248715 0.29076132
0003b0 83 04 11 bd 39 17 36 3f c3 6d d0 be 64 aa d9 be
       -0.035404693 0.71129185 -0.40708742 -0.4251281
0003c0 b6 61 a6 be 64 f9 36 3e 00 90 81 3b ec 80 3c be
       -0.32496423 0.17868572 0.0039539337 -0.18408555
0003d0 e3 9b 5b be 3c b4 29 3f 12 8c 60 be 00 5e 04 be
       -0.21446185 0.6629064 -0.21928433 -0.12926483
0003e0 54 c6 a4 be 50 33 af bd 62 3e c4 be e4 6b 69 be
       -0.32182562 -0.08554709 -0.38328844 -0.22795063
0003f0 74 67 3e 3e 6e 80 8b be ca 02 b2 be 66 c7 a2 3e
       0.18594152 -0.27246422 -0.34767753 0.31792754

fc1.bias f4 [100]
000000 51 fc af 3e d0 d7 41 be 87 c1 45 3d 92 8b f6 3e
       0.3437219 -0.18929982 0.048280265 0.4815336
000010 ba d9 c6 be 9e 56 ea 3c e8 ef ea 3d 94 bd 1e bf
       -0.38837987 0.028605755 0.1147154 -0.62008023
000020 74 e6 fd be 20 63 21 bf 01 da 92 be 60 70 b0 be
       -0.49589884 -0.6304188 -0.2868195 -0.34460735
000030 a8 6c 21 be d1 6b 7c 3d aa 04 c2 3e 8c 34 56 3e
       -0.15764105 0.06162626 0.37894183 0.20918483
000040 e0 f2 5f bd ee 1c bf 3e dd c8 5a 3e f0 56 ac 3e
       -0.054674983 0.3732676 0.21365686 0.33660078
000050 f2 15 b7 be db 01 cb be e0 42 a0 be 94 29 b8 3e
       -0.3575893 -0.39649853 -0.31301022 0.35969222
000060 0f 36 9d be 0a 5f 93 3c bf 2e be 3e 28 3c 45 3e
       -0.30705306 0.017989654 0.3714504 0.19261229
000070 a5 fb c2 be 39 8a 20 be 88 c5 cc be c5 96 d7 be
       -0.38082615 -0.15677728 -0.39994454 -0.42107216
000080 4c 24 ba be 65 bb 46 3f 08 5f fe 3e 54 a1 08 bf
       -0.36355817 0.7762969 0.49681878 -0.5337117
000090 74 11 8c be 90 ec 10 3e 1a be 91 3e 2c cc 93 be
       -0.27357066 0.14152741 0.28465348 -0.28866708
0000a0 43 fa c1 be f2 3a 9b 3e 62 d2 59 3e 66 b1 5f be
       -0.37886247 0.3031841 0.21271661 -0.21845016
0000b0 6c c6 40 3f 00 79 94 3e 78 b3 a7 bd 87 d2 28 3c
       0.7530277 0.28998566 -0.08188528 0.0103041
0000c0 e9 ff 27 bd 64 04 2b be a4 9d 17 3e 09 86 9b 3e
       -0.04101554 -0.16700894 0.14806229 0.30375698
0000d0 3f 8b dc be 54 6a bd 3e d2 2f eb bd 98 b8 26 be
       -0.43074986 0.36995184 -0.114837304 -0.16281354
0000e0 3c ab 00 be 2b ff 13 be db ba 81 3e 70 a6 9d 3e
       -0.1256532 -0.14452808 0.25337872 0.30791044
0000f0 fe dd bf be 56 98 c0 3e 1c 6e bf be 80 1e 52 3d
       -0.37474054 0.37616223 -0.37388694 0.05129862
000100 d0 e7 32 be 90 64 87 bd b6 83 f9 3d 6f f1 90 bd
       -0.17471242 -0.06610978 0.12183325 -0.070773
000110 d7 c7 e7 3d c0 d9 d4 be af ae 88 3d f8 89 80 3e
       0.11317413 -0.4157238 0.06673943 0.25105262
000120 f3 ed 13 3f 9c c7 c6 be c5 9b 0f 3f b8 6f a9 be
       0.57784957 -0.38824165 0.5609706 -0.33093047
000130 1a 53 2d bd 40 24 f2 3d ed 1f 99 bd cf d9 f6 3d
       -0.04231558 0.118233204 -0.074767925 0.120532624
000140 24 e3 b6 3e 40 c2 8d 3e e3 bc df be 9d cb e1 be
       0.3572017 0.27687263 -0.43698797 -0.44100657
000150 4c 24 56 be 60 6b 58 be d0 fd 5e 3d a8 1b ab 3e
       -0.20912284 -0.2113471 0.054441273 0.33419538
000160 28 5c 72 3e 51 c3 8d bd cd c7 8d 3e 91 5e 13 bf
       0.23667967 -0.06922019 0.27691498 -0.5756617
000170 1e c7 07 3e 17 b8 87 3d 9c 3c 23 be cc dc c6 3e
       0.13259551 0.06626909 -0.1594109 0.3884033
000180 40 94 6a 3c 98 35 cd bd 33 eb b6 be c0 46 23 3f
       0.014317572 -0.10019988 -0.35726318 0.6377983

fc2.weight f4 [3, 100]
000000 e5 41 4f 3d de f7 47 bd bb c5 56 3d 60 cc 88 3c
       0.05059995 -0.04882037 0.052434664 0.016699016
000010 71 aa 2a be f9 ce f0 bc 05 68 95 3d 26 f4 a5 be
       -0.1666658 -0.029395567 0.07295231 -0.32412833
000020 8d e3 d5 bc b5 c7 08 be eb b4 35 be 22 60 90 3d
       -0.026109481 -0.13357432 -0.17744796 0.07049586
000030 ea 6f 73 3d d0 00 98 3d 59 c1 66 3e 85 15 c0 3a
       0.0594329 0.0742203 0.22534694 0.0014654851
000040 1a e6 be bc 23 3a b9 3d b9 f2 90 be b5 5e 90 3d
       -0.02330308 0.09044292 -0.28310183 0.07049314
000050 93 5d b1 3c a9 79 43 be a0 b4 3d bd 20 71 5d bd
       0.021651065 -0.19089378 -0.046314836 -0.054062963
000060 4c 5e a4 bd b6 13 06 3d 3d b4 5a 3e e7 24 04 3f
       -0.08025798 0.03273364 0.21357818 0.5161881
000070 9b 15 bc 3d 4f 33 48 3d 60 80 00 3d a0 8e cf 3c
       0.091838084 0.048877057 0.031372428 0.025336564
000080 1d a1 41 bd 07 a0 90 3e fb 4d cc bd 44 55 e1 be
       -0.04727279 0.2824709 -0.09975811 -0.44010365
000090 00 c7 87 bc fd 54 34 bd 6c 20 10 bf f1 7c cd 3c
       -0.016574383 -0.044026364 -0.5629947 0.02508399
0000a0 57 99 83 be ed 3b cf 3c 4d ec 93 bd 95 b9 3f be
       -0.25702927 0.02529713 -0.07222805 -0.18723138
0000b0 68 c5 43 3e 9a 95 67 3b cf dd a7 3d 0a 0e 25 3e
       0.19118273 0.0035336972 0.081966035 0.16118637
0000c0 15 20 1a 3e 93 9c c7 3c 7f 1f 97 bd 04 ba a0 3b
       0.15051301 0.024366653 -0.07379054 0.0049049873
0000d0 77 6d 7f be 98 30 09 bf cd aa d3 3d 37 24 8a 3d
       -0.24944101 -0.53589773 0.10335312 0.06745189
0000e0 d8 5c bb bd c4 e3 ba 3e 72 2f 50 3c ab 41 8b 3e
       -0.09148568 0.36501896 0.012706624 0.27198538
0000f0 f3 97 73 3c 2d 8a 07 3f cf d5 90 bd 67 5c 26 bb
       0.0148677705 0.52945215 -0.07072031 -0.0025384666
000100 cd 25 a5 bb 2a a3 ba 3d 47 83 47 bc f9 f4 30 bd
       -0.0050399066 0.09113152 -0.012177295 -0.043202374
000110 77 b4 02 3e 7a 4f 94 bb ca fa bd be 07 c0 83 bd
       0.12764154 -0.004526076 -0.371054 -0.06433111
000120 51 ec 69 3e 73 fe 35 3c 02 c9 1c 3d 53 f5 8d bd
       0.22844054 0.011108029 0.038277633 -0.069315575
000130 81 ef d3 bd c8 a4 9d bd b1 1d 2a 3e c8 23 09 3e
       -0.10348416 -0.07697445 0.16612889 0.13392556
000140 13 23 0a bf 3d b0 08 bc c8 4c 56 bd 19 66 3a be
       -0.5395977 -0.0083428 -0.052319318 -0.1820301
000150 50 6f 3b 3d 7d ba c5 be 8d 1f 5f 3c e7 1c 68 bc
       0.045760453 -0.38618842 0.013618362 -0.014167047
000160 5f 00 83 3d b4 dd 6e bd 5b 52 d9 3d d5 4e a8 be
       0.06396555 -0.0583169 0.10611411 -0.32872644
000170 3d 5b 0c 3d 5f a1 d8 3c 43 c5 a0 be e0 df c5 3c
       0.0342667 0.026444135 -0.314005 0.024154603
000180 c0 59 02 bc 0a c8 95 bd ec b6 46 bb 97 db e3 3c
       -0.007955968 -0.07313545 -0.0030321432 0.02781467
000190 74 56 8e bd 97 de 3c 3d 6d 9e 04 3e b7 18 aa 3d
       -0.069500834 0.046110716 0.1295106 0.08305495
0001a0 4c 94 95 bd ef f8 c9 3d aa 4b 4f 3d 13 fd d8 bd
       -0.07303676 0.098619334 0.05060927 -0.10595145
0001b0 2d a9 a5 3d 81 1b 8d bd df 03 0c 3d fb b4 9b bd
       0.08088908 -0.068900116 0.03418338 -0.07602879
0001c0 d7 ca 55 bd ac c0 2d bd 2e a7 a1 3e 0c d5 af 3d
       -0.052195396 -0.042420074 0.3157286 0.08585557
0001d0 40 40 2b bd 23 0f 07 3d 5e e4 32 bf 9a a5 07 3a
       -0.04180932 0.03297342 -0.6987971 0.0005174518
0001e0 9a 12 4b bb 23 39 3b be 13 2c af bd b3 41 db bc
       -0.003098643 -0.18283515 -0.08553328 -0.026764726
0001f0 2b 05 41 bc 7d 01 2f 3d c2 36 8a 3d 5a 93 3c bf
       -0.011781017 0.04272603 0.067487255 -0.7366234
000200 29 f8 82 bd 92 0b a0 bd a3 24 bf 3d a6 9e 67 bc
       -0.06394989 -0.07814707 0.0933316 -0.014136946
000210 98 eb 83 bd b1 08 db 3e 8e 97 10 bd d6 13 83 be
       -0.0644142 0.4278007 -0.035300784 -0.2560107
000220 bd 7f 21 bd 0b 30 63 bd 6d 13 59 bd 3a ff ba 3d
       -0.03942846 -0.05546574 -0.05299704 0.09130712
000230 94 a0 e8 be 10 f4 2e bd 0c 8a 50 bd f8 d9 8c bc
       -0.4543501 -0.042713225 -0.0509129 -0.01719378
000240 cf e7 4a 3e 6d c6 86 3d 65 86 97 bd 2f a4 45 3b
       0.1981499 0.065808155 -0.073986806 0.0030157676
000250 92 2d f9 3d 13 09 80 3c 40 0b 97 3d fa f4 c2 3d
       0.12166895 0.015629327 0.07375193 0.09519382
000260 ff 3b 47 3d 2f 55 0c be 49 73 12 3e 33 ad 34 bb
       0.0486412 -0.1370437 0.1430179 -0.0027569055
000270 ca f3 9a bd 4f 79 bf be 9b 19 a4 3d de aa 1f bf
       -0.0756603 -0.3739724 0.08012696 -0.623701
000280 aa 7d 39 3d a2 15 3b bf b3 c4 65 3c cd b7 0d 3d
       0.04528586 -0.73079884 0.0140239475 0.034599114
000290 8b be b1 3d 10 36 91 bd 36 82 13 bd b0 9a ff bc
       0.08678921 -0.0709039 -0.03601285 -0.03120169
0002a0 a4 c7 b2 3d ae 09 ec bd 05 ca ad bd b3 34 1a bd
       0.08729485 -0.11525284 -0.08485798 -0.037647914
0002b0 49 84 f1 be 1a 27 7a bc 4b a9 1d bc c0 d5 b9 bd
       -0.47171238 -0.015268112 -0.009622882 -0.09073973
0002c0 79 0d f3 bc d3 2a f5 3c 61 6e 3e 3e 65 dd da be
       -0.02966951 0.029927647 0.18596794 -0.42747036
0002d0 aa a8 91 bd a3 43 b9 3d 99 65 54 3c 29 a1 49 bd
       -0.07112248 0.09046104 0.012963676 -0.04922596
0002e0 67 e4 96 ba b5 88 2c be a3 29 58 3d 07 3f f9 3c
       -0.0011512161 -0.16849025 0.052774083 0.030425562
0002f0 2a 80 3f 3d e6 b2 1d 3d 34 8b 8b 3c cd 92 dd bd
       0.046753086 0.03850069 0.01703415 -0.10819016
000300 ec 27 2b 3e 59 49 0e 3c c0 1c 80 bd 42 84 8c bd
       0.16714448 0.00868448 -0.062554836 -0.06861164
000310 10 26 59 bd 5a c0 3e 3d c8 5b e9 3d 8e 9f bf 3d
       -0.053014815 0.04657016 0.11394459 0.093566045
000320 e9 cf 5f ba 8d 4b f8 bc 7d 2c d7 bd c0 be 96 3c
       -0.0008537756 -0.030309463 -0.10506532 0.018401504
000330 cb ae 34 3e 70 76 48 bd a3 d6 7b bd 20 40 89 3e
       0.17644803 -0.048941076 -0.06148399 0.26806736
000340 7a d7 80 3c 6a a9 fe 3d ef 49 c9 bb 33 bc 4a bb
       0.015727747 0.12434657 -0.006142847 -0.003093493
000350 3a 6e f9 bc e9 b8 0d 3d 27 8d 0d bf 62 28 cf bd
       -0.030448068 0.034600172 -0.55293506 -0.10115124
000360 33 2b 7e 3d ed e5 c7 bd 10 db 49 3f b3 ea a7 3b
       0.062052917 -0.09760652 0.7884989 0.005124414
000370 33 be 04 bb 7a d7 97 3e 8d 63 cb bd 3a e7 a5 bd
       -0.002025497 0.29656583 -0.09931097 -0.081007436
000380 02 a4 01 3e a3 e5 a4 3d a1 9a 87 be c0 0e 6b be
       0.1266022 0.08051612 -0.2648516 -0.22954845
000390 db 6d 57 3d 23 63 a8 bc bb e8 bd bd 5a e4 9c 3d
       0.052595 -0.020555085 -0.092729054 0.07660742
0003a0 8d 6a af bd 38 0d 36 bf 1d b7 5d bd d2 b3 a1 3e
       -0.08565245 -0.7111392 -0.05412971 0.31582505
0003b0 fd 27 60 3d d4 2d 20 3d 0d 83 5a 3e cb 79 45 bd
       0.054725636 0.039106205 0.21339054 -0.048211854
0003c0 36 75 eb 3e 3a e7 50 3d 4c 6e 63 3d 41 67 10 3e
       0.45987862 0.051001765 0.05552511 0.14101888
0003d0 f1 95 ed be 60 12 a9 3c 00 5a 68 3b cd 5b e3 bd
       -0.4640346 0.020638645 0.0035454035 -0.11101494
0003e0 ac 67 55 be ed 80 9b 3c 92 fb b9 3d 3a 96 80 be
       -0.20840329 0.018982375 0.09081186 -0.25114614
0003f0 33 90 92 3d a0 85 45 3e 48 38 d0 be cf 25 99 3d
       0.0715641 0.19289255 -0.4066794 0.074779145

fc2.bias f4 [3]
000000 d8 21 99 3d 23 57 25 3e ab cd d0 bd
       0.07477158 0.16146521 -0.10195478
